…
p_fraction=1.0, cfg=None, tracker=botsort.yaml, save_dir=runs/detect/train\n","Downloading https://ultralytics.com/assets/Arial.ttf to '/root/.config/Ultralytics/Arial.ttf'...\n"]},{"metadata":{"tags":null},"name":"stderr","output_type":"stream","text":["100%|██████████| 755k/755k [00:00<00:00, 22.3MB/s]\n"]},{"metadata":{"tags":null},"name":"stdout","output_type":"stream","text":["Overriding model.yaml nc=80 with nc=1\n","\n","                   from  n    params  module                                       arguments                     \n","  0                  -1  1      3520  ultralytics.nn.modules.conv.Conv             [3, 32, 6, 2, 2]              \n","  1                  -1  1     18560  ultralytics.nn.modules.conv.Conv             [32, 64, 3, 2]                \n","  2                  -1  1     18816  ultralytics.nn.modules.block.C3              [64, 64, 1]                   \n","  3                  -1  1     73984  ultralytics.nn.modules.conv.Conv             [64, 128, 3, 2]               \n","  4                  -1  2    115712  ultralytics.nn.modules.block.C3              [128, 128, 2]                 \n","  5                  -1  1    295424  ultralytics.nn.modules.conv.Conv             [128, 256, 3, 2]              \n","  6                  -1  3    625152  ultralytics.nn.modules.block.C3              [256, 256, 3]                 \n","  7                  -1  1   1180672  ultralytics.nn.modules.conv.Conv             [256, 512, 3, 2]              \n","  8                  -1  1   1182720  ultralytics.nn.modules.block.C3              [512, 512, 1]                 \n","  9                  -1  1    656896  ultralytics.nn.modules.block.SPPF            [512, 512, 5]                 \n"," 10                  -1  1    131584  ultralytics.nn.modules.conv.Conv             [512, 256, 1, 1]              \n"," 11                  -1  1         0  torch.nn.modules.upsampling.Upsample         [None, 2, 'nearest']          \n"," 12             [-1, 6]  1         0  ultralytics.nn.modules.conv.Concat           [1]                           \n"," 13                  -1  1    361984  ultralytics.nn.modules.block.C3              [512, 256, 1, False]          \n"," 14                  -1  1     33024  ultralytics.nn.modules.conv.Conv             [256, 128, 1, 1]              \n"," 15                  -1  1         0  torch.nn.modules.upsampling.Upsample         [None, 2, 'nearest']          \n"," 16             [-1, 4]  1         0  ultralytics.nn.modules.conv.Concat           [1]                           \n"," 17                  -1  1     90880  ultralytics.nn.modules.block.C3              [256, 128, 1, False]          \n"," 18                  -1  1    147712  ultralytics.nn.modules.conv.Conv             [128, 128, 3, 2]              \n"," 19            [-1, 14]  1         0  ultralytics.nn.modules.conv.Concat           [1]                           \n"," 20                  -1  1    296448  ultralytics.nn.modules.block.C3              [256, 256, 1, False]          \n"," 21                  -1  1    590336  ultralytics.nn.modules.conv.Conv             [256, 256, 3, 2]              \n"," 22            [-1, 10]  1         0  ultralytics.nn.modules.conv.Concat           [1]                           \n"," 23                  -1  1   1182720  ultralytics.nn.modules.block.C3              [512, 512, 1, False]          \n"," 24        [17, 20, 23]  1   2116435  ultralytics.nn.modules.head.Detect           [1, [128, 256, 512]]          \n","YOLOv5s summary: 262 layers, 9,122,579 parameters, 9,122,563 gradients, 24.0 GFLOPs\n","\n","Transferred 421/427 items from pretrained weights\n","\u001b[34m\u001b[1mTensorBoard: \u001b[0mStart with 'tensorboard --logdir runs/detect/train', view at http://localhost:6006/\n","Freezing layer 'model.24.dfl.conv.weight'\n","\u001b[34m\u001b[1mAMP: \u001b[0mrunning Aut
…
